Saving qrels for WikiQA test data
qrels done. Saved as qrels_wikiqa
Pretraining on SQUAD-T dataset
__________________________________________________________________________________________________
Layer (type)                    Output Shape         Param #     Connected to                     
==================================================================================================
char_passage_input (InputLayer) (None, 100, 25)      0                                            
__________________________________________________________________________________________________
char_question_input (InputLayer (None, 100, 25)      0                                            
__________________________________________________________________________________________________
embedding_2 (Embedding)         (None, 100, 25, 8)   808         char_question_input[0][0]        
                                                                 char_passage_input[0][0]         
__________________________________________________________________________________________________
passage_input (InputLayer)      (None, 100)          0                                            
__________________________________________________________________________________________________
time_distributed_2 (TimeDistrib (None, 100, 21, 100) 4100        embedding_2[1][0]                
__________________________________________________________________________________________________
question_input (InputLayer)     (None, 100)          0                                            
__________________________________________________________________________________________________
time_distributed_1 (TimeDistrib (None, 100, 21, 100) 4100        embedding_2[0][0]                
__________________________________________________________________________________________________
embedding_1 (Embedding)         (None, 100, 300)     139869000   question_input[0][0]             
                                                                 passage_input[0][0]              
__________________________________________________________________________________________________
lambda_1 (Lambda)               (None, 100, 100)     0           time_distributed_1[0][0]         
                                                                 time_distributed_2[0][0]         
__________________________________________________________________________________________________
concatenate_2 (Concatenate)     (None, 100, 400)     0           embedding_1[1][0]                
                                                                 lambda_1[1][0]                   
__________________________________________________________________________________________________
concatenate_1 (Concatenate)     (None, 100, 400)     0           embedding_1[0][0]                
                                                                 lambda_1[0][0]                   
__________________________________________________________________________________________________
highway_0_ptd (TimeDistributed) (None, 100, 400)     320800      concatenate_2[0][0]              
__________________________________________________________________________________________________
highway_0_qtd (TimeDistributed) (None, 100, 400)     320800      concatenate_1[0][0]              
__________________________________________________________________________________________________
highway_1_ptd (TimeDistributed) (None, 100, 400)     320800      highway_0_ptd[0][0]              
__________________________________________________________________________________________________
highway_1_qtd (TimeDistributed) (None, 100, 400)     320800      highway_0_qtd[0][0]              
__________________________________________________________________________________________________
bidirectional_1 (Bidirectional) (None, 100, 400)     961600      highway_1_ptd[0][0]              
                                                                 highway_1_qtd[0][0]              
__________________________________________________________________________________________________
lambda_2 (Lambda)               (None, 100, 100, 400 0           bidirectional_1[0][0]            
__________________________________________________________________________________________________
…
                                                                 lambda_3[0][0]                   
__________________________________________________________________________________________________
concatenate_3 (Concatenate)     (None, 100, 100, 120 0           lambda_2[0][0]                   
                                                                 lambda_3[0][0]                   
                                                                 lambda_4[0][0]                   
__________________________________________________________________________________________________
dense_1 (Dense)                 (None, 100, 100, 1)  1201        concatenate_3[0][0]              
__________________________________________________________________________________________________
lambda_5 (Lambda)               (None, 100, 100)     0           dense_1[0][0]                    
__________________________________________________________________________________________________
activation_1 (Activation)       (None, 100, 100)     0           lambda_5[0][0]                   
__________________________________________________________________________________________________
b (Lambda)                      (None, 100)          0           activation_1[0][0]               
__________________________________________________________________________________________________
lambda_7 (Lambda)               (None, 1, 400)       0           b[0][0]                          
                                                                 bidirectional_1[0][0]            
__________________________________________________________________________________________________
lambda_6 (Lambda)               (None, 100, 400)     0           activation_1[0][0]               
                                                                 bidirectional_1[1][0]            
__________________________________________________________________________________________________
lambda_8 (Lambda)               (None, 100, 400)     0           lambda_7[0][0]                   
__________________________________________________________________________________________________
lambda_9 (Lambda)               (None, 100, 1600)    0           bidirectional_1[0][0]            
                                                                 lambda_6[0][0]                   
                                                                 lambda_8[0][0]                   
__________________________________________________________________________________________________
bidirectional_2 (Bidirectional) (None, 100, 400)     2881600     lambda_9[0][0]                   
__________________________________________________________________________________________________
bidirectional_3 (Bidirectional) (None, 100, 400)     961600      bidirectional_2[0][0]            
__________________________________________________________________________________________________
lambda_10 (Lambda)              (None, 400)          0           bidirectional_3[0][0]            
__________________________________________________________________________________________________
dense_2 (Dense)                 (None, 2)            802         lambda_10[0][0]                  
==================================================================================================
Total params: 145,326,411
Trainable params: 5,457,411
Non-trainable params: 139,869,000
__________________________________________________________________________________________________
Epoch 1/2

   1/4475 [..............................] - ETA: 9:46:56 - loss: 0.6926
…
